python training environment/model_saves/RT-implementation.onnx (onnx, 30958 bytes, 10 tensors)

sequential_37/time_distributed_37/dense_37/MatMul/ReadVariableOp:0 f4 [15, 1]
0	0x3eda3db5	0.42625204
1	0xbef49795	-0.47771898
2	0xbc748401	-0.01492405
3	0xbe00fdf5	-0.12596877
4	0xbf2e47db	-0.6807839
5	0x3eba5d7a	0.36399442
6	0x3f01a43c	0.50641227
7	0xbe82fa8d	-0.2558178
8	0xbf0c81dd	-0.54885656
9	0x3e81dcd4	0.2536379
10	0x3f12fd2c	0.5741756
11	0xbe81d145	-0.25354972
12	0x3f669388	0.90068865
13	0x3d833a0b	0.06407555
14	0x3db3901b	0.0876772

W0__502 f4 [1, 60, 15]
0	0xbe39f34c	-0.18159217
1	0x3e8e065c	0.27739227
2	0xbe212de8	-0.15740168
3	0xbe660107	-0.2246133
4	0xbd6def21	-0.05808938
5	0xbdaf785e	-0.0856788
6	0x3ccaa282	0.024735693
7	0x3d3b2665	0.045690913
8	0xbe4e5b4e	-0.20152017
9	0x3e736291	0.23768069
10	0x3e566df4	0.20940381
11	0xbdb4a5bf	-0.08820676
12	0x3de2b0c9	0.11068875
13	0xbdf83ef3	-0.121213816
14	0x3e96d6c7	0.29460737
15	0x3db760c2	0.08954002
16	0xbe8c3349	-0.27382877
17	0xbdaa40fd	-0.08313177
18	0xbd9b1ccb	-0.07573851
19	0x3cc1f5bb	0.023676744
20	0xbcedfd35	-0.029051403
21	0xbe65e1e8	-0.22449458
22	0xbe2c529d	-0.1682839
23	0x3eaa1d4b	0.33225474
24	0xbeabf7c1	-0.3358746
25	0xbc6fc40f	-0.014634146
26	0xbcc2b893	-0.023769652
27	0x3e030d72	0.12798098
28	0x3e88dcbd	0.2673091
29	0x3dad3936	0.08458178
30	0xbe5efc7a	-0.21776
31	0xbe16e862	-0.14737085
32	0x3d68bf8f	0.05682331
33	0xbe7ac6e0	-0.24489927
34	0x3ca0345a	0.019556213
35	0x3e1e9b02	0.15488818
36	0xbd83f43f	-0.064430706
37	0x3e6105da	0.21974888
38	0xbe143908	-0.1447488
39	0x3ba9bb51	0.0051798006
40	0xbe07314d	-0.132024
41	0xbda25cec	-0.0792788
42	0xbe006606	-0.12538919
43	0x3eadbf2a	0.3393491
44	0xbc802262	-0.015641395
45	0x3dc769bf	0.09736966
46	0xbea1adeb	-0.31578
47	0x3eaf83b3	0.34280166
48	0xbec58544	-0.38578236
49	0xbe4cf7ed	-0.20016451
50	0xbd1a172c	-0.037619755
51	0x3d2dbbc0	0.04241538
52	0x3d93297e	0.071856484
53	0x3e2dc654	0.16970187
54	0xbe26e8cf	-0.16299747
55	0xbd77a727	-0.060462143
56	0x3d714919	0.058907602
57	0x3d938e2b	0.07204851
58	0x3cfa7724	0.030574389
59	0xbda86bad	-0.082236625
60	0xbd9b0b52	-0.075705186
61	0xbefd6343	-0.49489793
62	0x3e2b5c8e	0.16734526
63	0x3bd5eef7	0.006528731
64	0x3ec018b6	0.37518853
65	0x3e81501f	0.2525644
66	0xbf0f042a	-0.5586573
67	0x3e94fb61	0.29098037
68	0x3e60c117	0.21948658
69	0xbeba1620	-0.36345005
70	0x3ef64457	0.48099014
71	0xbe2699bc	-0.16269583
72	0xbcdb6f0b	-0.026786348
73	0x3e73fa15	0.23825867
74	0x3f39281b	0.7232682
75	0xbd765113	-0.060135912
76	0x3e5210f3	0.20514278
77	0x3e17d03a	0.14825526
78	0xbd1eba1e	-0.038751714
79	0x3dab52e4	0.083654195
80	0x3e80efeb	0.25183043
81	0x3dfe814c	0.12427005
82	0xbd9dd401	-0.07706452
83	0xbeb24763	-0.3482009
84	0x3f30d47a	0.69074214
85	0xbe6f3df3	-0.23363476
86	0x3d8b1d41	0.06792689
87	0x3e076be8	0.13224757
88	0xbeba393d	-0.36371794
89	0xbe8e8a60	-0.27839947
90	0x3c8e126b	0.017342767
91	0xbeb833ae	-0.35976928
92	0xbe10e599	-0.14150085
93	0xbe2a9122	-0.16656926
94	0x3e94641d	0.2898263
95	0xbdc8df25	-0.098081864
96	0x3eb4e02b	0.35327277
97	0x3ed47f35	0.415033
98	0xbed4ba49	-0.41548374
99	0xbe8ccd4c	-0.2750038
100	0x3d2ad29a	0.04170475
101	0x3df904e5	0.12159137
102	0xbe7588f7	-0.23978029
103	0x3db8c617	0.09022158
104	0xbea5a91c	-0.32355583
105	0xbe1c9c56	-0.15294012
106	0xbe947dcc	-0.29002225
107	0xbe6b7806	-0.22995004
108	0xbe7090ad	-0.2349269
109	0x3f137151	0.5759478
110	0x3e2ec62f	0.17067789
111	0xbbbabcca	-0.005698775
112	0x3e13c987	0.14432345
113	0x3e87235c	0.26394165
114	0xbea8dbeb	-0.32980284
115	0x3dae6082	0.08514501
116	0x3dff7020	0.12472558
117	0xbb2f7488	-0.002677234
118	0x3ea6a6ac	0.32549036
119	0xbe0caa92	-0.13736942
120	0x3ec6a4af	0.3879752
121	0xbde6576e	-0.11247145
122	0xbec8976c	-0.39178026
123	0x3eb50456	0.3535487
124	0xbe6fe6ff	-0.23427962
125	0x3e9723e6	0.29519576
126	0xbee6a7d1	-0.4504991
127	0x3e57f69e	0.2109017
128	0x3e3c6b26	0.18400249
129	0x3e779ad3	0.24180155
130	0x3ed9da17	0.42549202
131	0x3df6bb9f	0.12047505
132	0x3da42d44	0.08016446
133	0x3e91a632	0.2844711
134	0x3d642575	0.055699784
135	0x3cf48ad0	0.029851347
136	0xbe5447a9	-0.20730461
137	0xbe3ac663	-0.18239741
138	0xbe998fb6	-0.29992455
139	0x3e9f5416	0.3111884
140	0xbe48be77	-0.19603907
141	0xbde39ccc	-0.11113891
142	0x3e5b1e3a	0.2139825
143	0x3e26d6ea	0.1629292
144	0x3ea87b47	0.32906553
145	0xbdc38ee5	-0.09548739
146	0xbec2564a	-0.37956458
147	0x3e89240f	0.26785323
148	0x3dcffa40	0.10155153
149	0x3f0d4000	0.5517578
150	0x3d86e2cb	0.06586226
151	0x3cba240f	0.022722272
152	0xbf31e4ec	-0.6948993
153	0x3e3646ab	0.17800395
154	0x3e2ae5f8	0.16689289
155	0x3ec144a9	0.37747696
156	0xbe5f4e22	-0.21807149
157	0xbe0b51bb	-0.13605396
158	0x3e875cd3	0.26438007
159	0x3f18e27d	0.59720594
160	0x3eff20b4	0.49829638
161	0xbe72f14e	-0.23724863
162	0xbeaef314	-0.3416983
163	0xbe6d13eb	-0.2315213
164	0x3cd75326	0.026284765
165	0x3e772295	0.24134286
166	0xbdd4b7c9	-0.10386617
167	0x3e813440	0.25235176
168	0xbe5df0fd	-0.21673961
169	0x3e003e2d	0.12523718
170	0xbd405357	-0.04695448
171	0xbbac4348	-0.005257044
172	0xbdf6302c	-0.12020907
173	0xbe8352db	-0.2564915
174	0x3ec26922	0.37970835
175	0x3d841f67	0.06451302
176	0xbd33024a	-0.043703355
177	0xbbe28a10	-0.006913431
178	0xbeccb0e0	-0.39978695
179	0x3db2b722	0.08726336
180	0x3dab87b8	0.08375496
181	0xbeb7e5bb	-0.35917458
182	0x3d961d08	0.07329756
183	0x3e091d89	0.13390173
184	0x3eaae647	0.33378813
185	0x3eb1d0f8	0.34729743
186	0x3d9d97f3	0.07694998
187	0x3efcb3b1	0.49355844
188	0x3e8d2e0a	0.27574188
189	0x3ef557e4	0.47918618
190	0xbe7c586d	-0.24643107
191	0xbdbb5986	-0.091479346
192	0x3e733557	0.23750816
193	0x3e30d3fe	0.17268369
194	0xbe0486fc	-0.12942117
195	0x3e2f4037	0.1711434
196	0xbd9f757e	-0.07786082
197	0xbed93d4a	-0.42429572
198	0x3dba1be0	0.09087348
199	0xbd9f82e0	-0.07788634
200	0x3d9bdfd2	0.0761105
201	0x3d95abc4	0.07308152
202	0xbd42d9b8	-0.047570914
203	0x3d34087e	0.04395341
204	0x3d23af66	0.039962195
205	0x3e1f43ac	0.15553159
206	0xbc38e6da	-0.011285508
207	0x3bb756cd	0.0055950643
208	0x3cbb7540	0.022883058
209	0x3e4ec759	0.20193233
210	0x3e53e3a2	0.20692304
211	0x3b47b438	0.003047241
212	0xbe7cfaa6	-0.2470499
213	0x3dbf08e0	0.09327865
214	0x3d60f2d4	0.05491908
215	0x3da4b0a3	0.08041503
216	0xbe838cac	-0.25693262
217	0x3e5ead2c	0.21745747
218	0xbe4dc960	-0.2009635
219	0x3e4965e5	0.19667776
220	0x3d8c443c	0.06848952
221	0x3ded1fdd	0.11578343
222	0x3c99e81b	0.018787434
223	0x3c8f23c3	0.017473107
224	0xbd4c6a48	-0.049906045
225	0x3e3ede54	0.18639499
226	0x3ef04cc5	0.4693357
227	0xbef14483	-0.47122583
228	0xbdbd5b7e	-0.092459664
229	0xbe93e45e	-0.28885168
230	0x3eb6ccbd	0.35703078
231	0x3ea281d7	0.31739685
232	0xbe36a0dc	-0.178348
233	0xbd039291	-0.0321222
234	0xbe3483dd	-0.17628427
235	0x3cf6f0f2	0.030144189
236	0xbc760295	-0.015015264
237	0xbe4b3c08	-0.19847119
238	0x3f06e44a	0.5269209
239	0xbec27d96	-0.3798644
240	0x3eb62ff7	0.3558347
241	0x3d923280	0.07138538
242	0xbc930f5f	-0.017951665
243	0xbe8139db	-0.25239453
244	0x3ec9cfeb	0.3941644
245	0xbdfc2ae0	-0.12312865
246	0xbeb8d53c	-0.36100185
247	0xbd0372c4	-0.03209187
248	0x3ea73072	0.32654148
249	0xbd8cb8e3	-0.06871202
250	0xbba90ef0	-0.0051592514
251	0xbce3a6bb	-0.027789464
252	0x3d389603	0.045064937
253	0x3f4aa4fa	0.79157984
254	0x3d8810f0	0.066438556
255	0x3e02eeaf	0.12786363

W0__480 f4 [1, 60, 15]
0	0x3e277181	0.16351892
1	0x3d995108	0.074861586
2	0x3e5507b3	0.20803718
3	0x3e6554da	0.2239565
4	0x3d8fa635	0.07014123
5	0xbecb0c54	-0.39657843
6	0x3e02f163	0.12787394
7	0xbd243bf9	-0.040096257
8	0x3e261c9d	0.16221853
9	0x3eb5e222	0.35524088
10	0xbe6c7917	-0.23093067
11	0x3e3d6471	0.18495347
12	0x3da72c8f	0.08162796
13	0x3b9a8223	0.0047152205
14	0xbe04ab80	-0.12956047
15	0xbd6a5c2c	-0.05721681
16	0x3e1d51f2	0.15363291
17	0xbccba5c8	-0.024859324
18	0x3e3d6a97	0.18497692
19	0xbeaac092	-0.33350044
20	0xbe8ae48f	-0.271275
21	0xbe132a72	-0.1437166
22	0x3d910e73	0.07082834
23	0x3e39aef4	0.18133146
24	0x3d82890f	0.06373798
25	0x3e2f2ed8	0.17107713
26	0x3e8286fb	0.25493607
27	0xbd9c97af	-0.07646119
28	0x3dd0d23a	0.101963475
29	0xbda49b37	-0.080374174
30	0xbe6f05a3	-0.23341994
31	0x3e34bd5a	0.17650357
32	0x3ed79a75	0.4211003
33	0xbd939079	-0.0720529
34	0x3e8f8366	0.28029937
35	0xbe52b26e	-0.20575878
36	0xbe4765e5	-0.19472463
37	0xbcf69f10	-0.030105144
38	0x3e5edbbd	0.21763511
39	0xbd9af551	-0.07566322
40	0xbda146d0	-0.078748345
41	0xbead2d77	-0.3382375
42	0x3d876940	0.06611872
43	0x3da499fe	0.08037184
44	0x3e2cac15	0.16862519
45	0xbe0eca80	-0.13944435
46	0xbbc69815	-0.00606061
47	0x3e9cc87d	0.3062171
48	0x3d969bb6	0.07353918
49	0x3c5f3520	0.013623506
50	0xbdecefd4	-0.11569181
51	0x3e7c1d25	0.24620493
52	0xbe7fee1e	-0.24993178
53	0x3e1bab73	0.15202121
54	0xbdecc860	-0.11561656
55	0xbe6b92f8	-0.23005283
56	0xbdd72239	-0.10504574
57	0xbd808659	-0.06275625
58	0x3e84495d	0.25837222
59	0x3d0e804e	0.03479033
60	0x3e537fe5	0.20654257
61	0xbeaa24d1	-0.33231214
62	0xbe0dd947	-0.13852416
63	0xbebe6caa	-0.3719228
64	0xbe5f846a	-0.21827856
65	0x3db4f0f6	0.08835022
66	0x3e98fec2	0.29881865
67	0x3e8ac8eb	0.27106413
68	0x3e0181a7	0.12647115
69	0xbe3fc85b	-0.18728773
70	0xbe847447	-0.25869963
71	0x3e7248f2	0.23660639
72	0x3e7ab562	0.24483255
73	0x3dd09f39	0.10186619
74	0x3c0f9216	0.008762857
75	0xbdd2d694	-0.10294834
76	0xbdeef599	-0.11667938
77	0xbdcdf0d8	-0.10055703
78	0xbeaaccbf	-0.33359334
79	0xbe4b8a41	-0.19876958
80	0x3b866dbd	0.0041024373
81	0x3e898f70	0.26867247
82	0x3e8795e9	0.2648156
83	0xbe4d920a	-0.2007524
84	0x3de73461	0.11289287
85	0xbe6bde12	-0.23033932
86	0x3ea136ad	0.31487027
87	0xbe084788	-0.13308537
88	0xbe147058	-0.1449598
89	0x3e419c65	0.18907316
90	0x3e92b1a4	0.28651154
91	0x3e84c86d	0.25934163
92	0x3dfb87cb	0.1228176
93	0xbc897bf1	-0.016782733
94	0xbd3c52c4	-0.04597737
95	0xbcd8cc69	-0.026464658
96	0xbe653bc6	-0.22386083
97	0x3e8b1527	0.27164575
98	0x3df1197e	0.117724404
99	0xbe23373e	-0.15939042
100	0x3be382b3	0.006943071
101	0xbe25b181	-0.16180994
102	0xbc72dd73	-0.014823305
103	0xbdaf3573	-0.085551165
104	0xbe8b9447	-0.27261564
105	0xbe37fb22	-0.17966893
106	0x3e6509fc	0.2236709
107	0x3e8180f1	0.25293687
108	0x3dc52944	0.096270114
109	0xbe8a3829	-0.26995972
110	0xbc9848e0	-0.018589437
111	0x3dcfb4d7	0.10141914
112	0x3df40a4f	0.11916029
113	0xbe27aca3	-0.1637445
114	0xbe305e7a	-0.1722354
115	0xbe98178d	-0.29705468
116	0xbe817d6d	-0.25291005
117	0x3e337f7d	0.17529102
118	0x3e48cc12	0.19609097
119	0xbe9c9691	-0.30583623
120	0xbea26acb	-0.31722102
121	0x3ebd671a	0.36992723
122	0x3e63640e	0.22206137
123	0x3e6afe58	0.22948587
124	0xbe976e20	-0.29576206
125	0xbeb9cfc2	-0.3629132
126	0x3ed1aacd	0.40950623
127	0xb7c46c80	-2.3415545e-05
128	0x3e5f32b1	0.21796681
129	0x3eac912d	0.3370451
130	0xbdd02d74	-0.101649195
131	0xbdd4088d	-0.103531934
132	0x3eacf1c4	0.33778203
133	0xbd67afd6	-0.056564175
134	0xbd340b38	-0.04395601
135	0xbdc7a069	-0.09747393
136	0xbe69b7e2	-0.22824052
137	0x3de88746	0.11353926
138	0x3e9069a5	0.282056
139	0x3e3d90f7	0.18512331
140	0x3e95d332	0.29262692
141	0xbe5d885a	-0.21634045
142	0xbe6ae45f	-0.22938679
143	0x3cb7bcb2	0.022428844
144	0x3e849718	0.25896525
145	0xbe7e16e2	-0.24813417
146	0x3d14a9e1	0.03629482
147	0x3dae4a64	0.08510283
148	0x3e0d20ad	0.13781996
149	0xbe92aa1a	-0.28645402
150	0xbce241fb	-0.027619353
151	0xbe084c7f	-0.13310431
152	0x3cd604fa	0.02612542
153	0xbe872474	-0.26395
154	0xbe927d26	-0.28611106
155	0x3e3e0a3a	0.18558589
156	0x3e6a5b08	0.22886288
157	0x3e1c244d	0.15248223
158	0x3c48bef6	0.01225256
159	0xbe3e4bf9	-0.18583669
160	0xbcde7624	-0.027155943
161	0xbe62a556	-0.22133383
162	0xbe379678	-0.17928493
163	0xbdfda604	-0.123851806
164	0xbe0a3f89	-0.13500799
165	0xbba549ff	-0.0050442214
166	0x3e81cfe0	0.2535391
167	0xbdb7d007	-0.08975225
168	0xbe1334e8	-0.14375651
169	0xbc2ce1ed	-0.010551912
170	0x3e4b6dca	0.198661
171	0xbee79de7	-0.45237657
172	0xbe8053d1	-0.25063947
173	0xbd24fb5e	-0.040278785
174	0x3e4879c6	0.19577703
175	0x3e0f6854	0.14004642
176	0xbba6b690	-0.005087681
177	0xbb9f92e7	-0.004869807
178	0xbb96525a	-0.004587454
179	0xbe0d7060	-0.13812399
180	0xbd3e0ee6	-0.046400927
181	0xbe5c2d94	-0.21501762
182	0x3e7eaaec	0.24869889
183	0x3e1a8cf7	0.15092836
184	0x3dc62954	0.096758515
185	0x3e31df9a	0.17370453
186	0x3dabb74e	0.08384572
187	0xbe11518b	-0.14191262
188	0x3e73cb41	0.23808004
189	0xbd723135	-0.05912896
190	0xbe87ceab	-0.26524863
191	0xbdbcbae3	-0.09215333
192	0xbe748499	-0.23878707
193	0x3e9ff6fd	0.31243125
194	0x3deee370	0.11664474
195	0x3e8d3cfe	0.27585596
196	0xbe285fec	-0.16442841
197	0xbdb022c4	-0.08600381
198	0xbed1f4c8	-0.41007066
199	0x3eb14dee	0.34629768
200	0xbe903c25	-0.28170887
201	0xbdbf981a	-0.09355183
202	0x3d02a3e1	0.03189457
203	0x3dbbc243	0.09167912
204	0xbdefaed2	-0.11703266
205	0xbcd85492	-0.026407514
206	0x3e3456ab	0.17611186
207	0xbde94fb0	-0.11392152
208	0x3e798755	0.24368031
209	0xbe97534a	-0.29555732
210	0x3e3cdb97	0.18443142
211	0x3d62979f	0.05532038
212	0xbe3a5f02	-0.18200305
213	0xbe896d4d	-0.26841202
214	0xbdcbc930	-0.09950483
215	0x3e8cc42c	0.27493417
216	0xbdd21991	-0.10258783
217	0xbe9401da	-0.28907663
218	0xbddaa75f	-0.10676455
219	0xbd4b9a59	-0.049707744
220	0x3e859a57	0.26094314
221	0x3cfb0a70	0.030644625
222	0xbcdfae08	-0.027304664
223	0x3e161ea9	0.14660133
224	0xbe8c5aa9	-0.27412918
225	0x3e733799	0.23751678
226	0x3ebcba8d	0.36861077
227	0xbe80f617	-0.25187752
228	0xbd8cffaf	-0.06884705
229	0xbe0f3ec1	-0.13988782
230	0x3e1fbdd2	0.15599754
231	0xbe756d3b	-0.2396745
232	0x3db4c9fc	0.08827588
233	0xbcb2a962	-0.021809284
234	0x3f0f6032	0.5600616
235	0xbe6a6641	-0.2289057
236	0xbeb2bb41	-0.34908488
237	0x3cd3e4e1	0.025865974
238	0xbd428205	-0.047487278
239	0xbe93dee2	-0.28880984
240	0x3dc3a3e3	0.09552743
241	0x3c350d48	0.01105053
242	0xbe9c2323	-0.30495557
243	0xbe01d217	-0.12677799
244	0xbdc4e89f	-0.096146815
245	0xbe5ad79c	-0.21371311
246	0xbdee8359	-0.11646146
247	0xbe738081	-0.23779489
248	0xbd05f854	-0.032707527
249	0xbe7cc725	-0.24685343
250	0x3d128af4	0.035777047
251	0xbd27529d	-0.04085027
252	0xbe6ca86c	-0.23111123
253	0x3e5cf824	0.21579033
254	0x3e4cd788	0.20004094
255	0xbeed5709	-0.46355465

W0__458 f4 [1, 60, 16]
0	0x3e000adf	0.12504147
1	0xbdacd774	-0.08439532
2	0xbe2d1176	-0.16901192
3	0xbda2cecd	-0.079496
4	0xbbf8e0b9	-0.0075951484
5	0x3dc83491	0.09775651
6	0x3ddc46b3	0.10755672
7	0xbd11e79a	-0.035621263
8	0xbe48f8fa	-0.19626227
9	0xbca1fb13	-0.019773042
10	0x3e485038	0.19561851
11	0x3d2e044e	0.042484574
12	0x3d72f9d2	0.05932028
13	0xbdd39308	-0.10330778
14	0xbcaeef3d	-0.021354312
15	0x3daccce6	0.08437519
16	0xbdac3e3a	-0.08410306
17	0x3df54630	0.11976278
18	0x3e0dc2bb	0.13843815
19	0xbe96ed2d	-0.29477826
20	0xbe8ebf25	-0.27880207
21	0xbea1b554	-0.31583655
22	0x3e58e036	0.2117928
23	0xbd79d02d	-0.060989548
24	0xbe23fc44	-0.160142
25	0xbde92220	-0.11383462
26	0xbdbe19d6	-0.092822716
27	0xbe3c834b	-0.1840946
28	0xbdb3736e	-0.08762251
29	0x3eb6f4ae	0.3573355
30	0x3dcd5d4c	0.100275606
31	0x3e337d4e	0.17528269
32	0x3ebd101b	0.3692635
33	0x3dc229a8	0.094806015
34	0x3df0b311	0.11752904
35	0xbd9166d7	-0.07099693
36	0x3eb5b06e	0.35486168
37	0x3e855cd2	0.2604738
38	0xbd8c1ea4	-0.06841782
39	0x3e892bb3	0.26791152
40	0x3e033415	0.12812836
41	0x3ea25f4a	0.31713325
42	0x3e520435	0.20509417
43	0xbe3ef3f3	-0.18647747
44	0x3e5f576e	0.21810696
45	0x3ea50cde	0.3223638
46	0xbe594a58	-0.21219766
47	0x3de66ed6	0.11251609
48	0xbe256f36	-0.16155705
49	0x3df527ea	0.11970504
50	0xbce45fac	-0.027877651
51	0xbe3a4cc7	-0.1819335
52	0xbd82ef0e	-0.06393252
53	0x3d678d55	0.05653127
54	0x3e603f79	0.21899213
55	0xbd9bbd6a	-0.07604487
56	0x3e581789	0.21102728
57	0x3e82814b	0.25489268
58	0xbdb1d371	-0.086829074
59	0xbd435e30	-0.047697246
60	0xbe061535	-0.13094027
61	0x3cbf8291	0.023377689
62	0x3e550bf5	0.20805342
63	0xbe638d7c	-0.22221941
64	0xbd2fd338	-0.042926043
65	0xbe787619	-0.242638
66	0x3d9282c0	0.07153845
67	0x3e2cf974	0.16892034
68	0xbe4baad2	-0.19889382
69	0xbdcedd3f	-0.10100793
70	0xbe610d3f	-0.21977709
71	0xbcadc7ff	-0.02121353
72	0x3c0318d9	0.00800153
73	0x3d724951	0.05915195
74	0x3e382b53	0.17985277
75	0xbd17db6e	-0.0370745
76	0xbe7e6f20	-0.24847078
77	0x3e4b7349	0.19868197
78	0xbcdb9d25	-0.02680833
79	0x3dad0f98	0.0845024
80	0xbd51ed28	-0.05125156
81	0xbe053385	-0.13007934
82	0x3cfbd4b5	0.030741075
83	0xbe40544a	-0.18782154
84	0xbb5f205c	-0.0034046387
85	0xbc75211f	-0.01496151
86	0xbe10d3f2	-0.1414335
87	0x3dd63f09	0.10461242
88	0xbdcd1da6	-0.100154206
89	0x3de4a225	0.11163739
90	0xbe97a419	-0.29617384
91	0x3e12ce17	0.1433643
92	0xbe6e4d17	-0.23271595
93	0x3d03a4a1	0.032139424
94	0xbdcbeac4	-0.09956887
95	0x3e64e41a	0.22352639
96	0xbdf8b0ec	-0.1214312
97	0xbe6c35d5	-0.2306741
98	0x3da657fd	0.08122251
99	0x3e5931e0	0.21210432
100	0x3e4072fc	0.18793863
101	0xbe2fbe2c	-0.17162389
102	0x3dc2f182	0.0951872
103	0x3d462baa	0.048381485
104	0xbe98e225	-0.29860035
105	0xbcaac488	-0.020845667
106	0xbdd51327	-0.10404044
107	0xbe0c845f	-0.1372237
108	0x3e1191b9	0.14215745
109	0x3b82f8f7	0.003996964
110	0xbe84854a	-0.2588294
111	0x3dbc2a4e	0.091877565
112	0xbd0076a0	-0.03136313
113	0x3e73c789	0.23806585
114	0xbd9fd07b	-0.07803436
115	0xbe01e689	-0.12685598
116	0x3e47622d	0.19471045
117	0xbdb7f717	-0.089826755
118	0x3e524440	0.20533848
119	0xbe3c7c40	-0.18406773
120	0x3e1fec25	0.15617426
121	0xbda53e52	-0.08068527
122	0xbe1afcdf	-0.15135525
123	0xbdde3b39	-0.108511396
124	0xbd5cdfd9	-0.053924415
125	0x3e29d74a	0.16586033
126	0xbe59626b	-0.2122895
127	0xbe8e0015	-0.27734438
128	0x3e819255	0.25306955
129	0x3f049ca8	0.5180154
130	0x3d7f93a7	0.06239667
131	0x3e8993ba	0.2687052
132	0x3eeb3a7e	0.45943063
133	0x3e5a26b8	0.21303833
134	0x3f05e074	0.52295613
135	0x3ed408f1	0.41413072
136	0x3eca0978	0.3946035
137	0x3ed0bc81	0.40768817
138	0x3ec39321	0.38198188
139	0x3d22275c	0.039588317
140	0x3ec1b701	0.37834933
141	0x3db9992b	0.090624176
142	0x3de03a9b	0.10948678
143	0x3da453d1	0.08023799
144	0x3e60c4a2	0.2195001
145	0xbd9fe5b8	-0.07807487
146	0x3da592b2	0.080846205
147	0xbe290a51	-0.16507842
148	0x3d83e9ed	0.06441102
149	0xbe075fdc	-0.13220161
150	0x3bcfed81	0.0063454513
151	0x3e4c6897	0.19961773
152	0x3ea0434e	0.3130135
153	0x3e2f684d	0.17129631
154	0x3e95efa5	0.29284397
155	0x3e30b68c	0.17257136
156	0x3e8f9904	0.2804643
157	0xbdff9ae3	-0.12480714
158	0x3b1b986f	0.002374198
159	0xbe1fc70e	-0.15603277
160	0xbe7ce050	-0.24694943
161	0xbe77c0b2	-0.24194601
162	0x3d099ea5	0.03359856
163	0xbda26f5b	-0.079313956
164	0x3e2dd883	0.16977124
165	0xbb6ac782	-0.0035824482
166	0xbdefb987	-0.117053084
167	0x3e523cb6	0.20530972
168	0x3e51410c	0.2043497
169	0xbd80e194	-0.062930256
170	0xbcc56e87	-0.024100555
171	0xbd77b8a1	-0.06047881
172	0x3e58b651	0.21163298
173	0x3d281819	0.041038606
174	0x3e04f50d	0.12984104
175	0x3c700b7e	0.014651177
176	0xbe4efcc4	-0.2021361
177	0x3dc08ff6	0.09402458
178	0xbe053f2d	-0.13012381
179	0xbe779bcb	-0.24180524
180	0x3e2edd2a	0.17076555
181	0xbe23484f	-0.15945552
182	0x3e041db9	0.12901963
183	0x3dd29375	0.102820314
184	0x3e98d0c8	0.29846787
185	0x3d3ed1f3	0.046586942
186	0x3e336806	0.1752015
187	0xbe131916	-0.14365038
188	0xbd6ff0bc	-0.05857919
189	0x3d35f492	0.044422694
190	0x3e9dcd69	0.30820778
191	0xbe310991	-0.17288806
192	0x3e1ed626	0.15511379
193	0x3e5e94a0	0.21736383
194	0x3e95e15d	0.292735
195	0xbdf87e8d	-0.12133513
196	0xbe65adec	-0.22429627
197	0x3db8ac3a	0.090172246
198	0x3cde5916	0.027142089
199	0xbd59fa59	-0.053217266
200	0x3e668a94	0.22513801
201	0xbdb358f4	-0.08757201
202	0xbe6b44ed	-0.22975512
203	0xbe006fe0	-0.12542677
204	0xbe081154	-0.1328786
205	0x3d88fa68	0.06688386
206	0x3e0226e8	0.12710154
207	0xbe773ac6	-0.24143514
208	0xbe66e68d	-0.22548886
209	0x3d1c2188	0.038117915
210	0x3e13aeef	0.144222
211	0xbe15dcc9	-0.14635004
212	0xbe9260f5	-0.28589597
213	0x3dffda15	0.12492768
214	0xbbda0544	-0.0066534597
215	0xbc890252	-0.01672474
216	0x3e24a06b	0.1607682
217	0x3ccca152	0.024979267
218	0x3c311470	0.010808095
219	0xbcc0bb5e	-0.023526844
220	0x3d63e1be	0.055635206
221	0xbcdee24f	-0.027207522
222	0x3dcb9e3b	0.099422894
223	0xbdfbf04a	-0.12301691
224	0xbd233b41	-0.03985143
225	0xbe087a79	-0.1332797
226	0x3dd9e29e	0.10638927
227	0x3e88869f	0.26665208
228	0x3e668134	0.22510225
229	0x3e78d398	0.24299467
230	0x3e89a317	0.2688224
231	0xbd332ffe	-0.04374694
232	0xbd9b195a	-0.07573195
233	0xbd82e35f	-0.06391024
234	0xbd4582ca	-0.048220433
235	0xbdd19654	-0.10233751
236	0x3e27dfd8	0.16393983
237	0xbe0d4bab	-0.13798396
238	0x3d79b0d3	0.06095965
239	0x3e0186c9	0.12649073
240	0x3c4bb153	0.012432414
241	0xbc8b58db	-0.017010143
242	0x3ddc8d25	0.10769109
243	0x3e345897	0.1761192
244	0xbda804d6	-0.082040474
245	0x3e0e8653	0.13918428
246	0xbe0914e0	-0.1338687
247	0x3dc8ba14	0.098011166
248	0x3bdc32b2	0.0067199105
249	0x3dead68a	0.11466701
250	0x3eed0709	0.4629443
251	0x3e386ea6	0.18010959
252	0x3f01726f	0.50565237
253	0x3f0c78fe	0.5487212
254	0x3ea212c0	0.3165493
255	0x3f0f1c70	0.5590277

R0__503 f4 [1, 60, 15]
0	0x3e1ae269	0.15125431
1	0x3d4756c9	0.04866675
2	0x3eaf7a4e	0.34273
3	0x3ec34453	0.38138065
4	0xbf062c4a	-0.5241133
5	0x3e8c317a	0.27381498
6	0x3e3a4511	0.18190409
7	0xbd22c3b2	-0.03973741
8	0xbec6807f	-0.3876991
9	0x3de223ae	0.110419616
10	0x3ed815c9	0.4220412
11	0x3cb12355	0.021623293
12	0xbeab604a	-0.334719
13	0xbec90bd8	-0.3926685
14	0x3e268e1d	0.1626515
15	0x3db74047	0.08947807
16	0xbe903127	-0.281625
17	0x3ec6fb6d	0.38863698
18	0x3e502623	0.20327048
19	0xbe32df78	-0.17468059
20	0xbd6b2112	-0.057404585
21	0x3e214042	0.15747169
22	0x3e5a23c7	0.2130271
23	0xbe0a1d50	-0.13487744
24	0xbdc6f014	-0.0971376
25	0x3d326d5c	0.043561324
26	0x3e7fe192	0.24988392
27	0x3e3a8130	0.18213344
28	0xbe550706	-0.2080346
29	0x3e5fe624	0.21865135
30	0x3da26627	0.0792964
31	0x3df291a9	0.11844189
32	0xbda6cc53	-0.081444405
33	0xbe1cf042	-0.15326026
34	0x3e1619ed	0.14658327
35	0xbd714cf5	-0.058911283
36	0xbd4be459	-0.049778316
37	0x3d6ea44d	0.05826216
38	0x3d0f4426	0.0349771
39	0x3d9fc51d	0.07801268
40	0x3d4d90af	0.05018681
41	0x3dfe33d1	0.12412227
42	0xbee15a91	-0.4401441
43	0x3d944643	0.07239964
44	0xbe5fd6c5	-0.21859272
45	0xbd9577f8	-0.07298273
46	0x3cec3b44	0.028836854
47	0xbd853cf7	-0.06505769
48	0xbc2f27b9	-0.010690623
49	0x3e22a960	0.15884924
50	0xbdb4bdcf	-0.088252656
51	0xbdeaf3ef	-0.11472308
52	0x3e364a57	0.17801796
53	0x3cd07f28	0.025451258
54	0x3e22da39	0.15903558
55	0xbd6cd795	-0.057822783
56	0x3e972329	0.29519013
57	0xbe737ae0	-0.23777342
58	0xbc9262a5	-0.017869303
59	0xbd7feb6d	-0.06248038
60	0xbebdae33	-0.37046966
61	0x3e065214	0.13117248
62	0x3eb71be3	0.35763463
63	0xbc3cad53	-0.011515933
64	0xbe7c4051	-0.2463391
65	0xbd619325	-0.05507197
66	0x3e5dca96	0.21659312
67	0xbdb51af5	-0.08843032
68	0xbd73757f	-0.059438225
69	0x3d8fb3a7	0.07016688
70	0x3e8490a7	0.2589161
71	0xbe017987	-0.12644015
72	0x3d926666	0.07148437
73	0xbe5caebb	-0.2155103
74	0x3db6f27b	0.08932968
75	0xbe82b54c	-0.25528944
76	0xbc4060db	-0.011741842
77	0x3e0644a0	0.13112116
78	0x3c28716a	0.010280946
79	0x3ea177fc	0.31536853
80	0xba0acfe6	-0.00052952615
81	0x3e4a99e8	0.19785273
82	0x3d53855d	0.051640857
83	0x3dcd7315	0.10031716
84	0x3ce04d77	0.027380688
85	0x3d740b28	0.059580952
86	0x3dcb6476	0.09931271
87	0xbe74bdf9	-0.23900594
88	0xbdc17a97	-0.0944721
89	0xbc184168	-0.009292938
90	0xbe860f92	-0.26183754
91	0x3e32cc6d	0.17460795
92	0x3e9fa1b8	0.3117807
93	0xbde3f400	-0.11130524
94	0x3d83a4a8	0.0642789
95	0xbe94ad13	-0.29038295
96	0x3d2160f4	0.039399102
97	0x3d32241f	0.04349148
98	0xbe517c9c	-0.20457691
99	0x3e69c76f	0.22829984
100	0x3cc1fa82	0.023679022
101	0x3edf5659	0.43620566
102	0xbee80391	-0.4531522
103	0x3dc96fa1	0.09835745
104	0xbeda42e0	-0.42629147
105	0xbd8deb76	-0.06929676
106	0xbe3d73fc	-0.18501276
107	0xbbe3bb12	-0.0069497908
108	0x3dd0ef76	0.102019235
109	0xbd6ca356	-0.057772957
110	0xbd3a3ad4	-0.04546626
111	0xbd78baf5	-0.06072517
112	0xbd9f6319	-0.07782573
113	0x3dfcc935	0.12343065
114	0x3e3044d4	0.17213756
115	0x3e68d6f4	0.22738248
116	0xbd4c3931	-0.04985923
117	0xbea3ff66	-0.3203079
118	0xbebdc562	-0.37064654
119	0x3ec2e264	0.38063347
120	0xbdce8a51	-0.100849755
121	0x3e781d10	0.24229836
122	0x3e6f0038	0.23339927
123	0xbded5ff6	-0.11590569
124	0xbcfa5908	-0.030560032
125	0x3e5281d2	0.20557335
126	0x3ea202ff	0.3164291
127	0xbeca8718	-0.39556193
128	0x3e4e046f	0.20118879
129	0x3d0c37a7	0.03423276
130	0x3c284522	0.010270389
131	0xbef0a138	-0.46998
132	0xbda4f29b	-0.08054086
133	0xbdd9dbf4	-0.10637656
134	0x3eb7eef0	0.35924482
135	0x3dbe2a15	0.0928537
136	0xbe7482a0	-0.23877954
137	0x3ca5de6d	0.020247662
138	0xbd998aae	-0.07497154
139	0x3dc11abe	0.09428929
140	0xbe8c556d	-0.27408925
141	0x3df323b5	0.11872045
142	0x3d2e016f	0.042481836
143	0x3cd33209	0.025780695
144	0xbc83eedd	-0.01610511
145	0x3e69bfa0	0.22827005
146	0xbc04cc3d	-0.008105335
147	0x3e5f7bef	0.2182462
148	0xbbf10af2	-0.007356041
149	0x3dc5ab74	0.09651843
150	0xbedb368d	-0.42815056
151	0xbd5491bf	-0.051896807
152	0x3e8ea499	0.27859953
153	0x3e994ea3	0.29942808
154	0x3d541f58	0.051787704
155	0x3e1bda2b	0.15219943
156	0x3e58b955	0.21164449
157	0xbe8212de	-0.2540502
158	0x3e525690	0.20540833
159	0x3eb76bef	0.35824534
160	0x3e5720a9	0.21008553
161	0x3d3b7001	0.045761112
162	0xbeda1086	-0.4259073
163	0xbe221fa8	-0.15832388
164	0x3df78694	0.120862156
165	0x3e905256	0.28187817
166	0x3c965a93	0.018353736
167	0x3e7806d4	0.24221355
168	0x3e17b643	0.14815621
169	0x3d995dc1	0.07488585
170	0xbc032068	-0.008003332
171	0x3eca7754	0.39544165
172	0xbde89e19	-0.1135828
173	0xbe8aa12c	-0.2707609
174	0x3eaf0546	0.3418371
175	0x3db60ea1	0.08889509
176	0xbd55ebbf	-0.052226778
177	0x3e1e1db3	0.15441017
178	0x3d91289a	0.07087822
179	0x3ddbf32a	0.10739739
180	0xbd927881	-0.071518905
181	0xbf1cdd03	-0.6127474
182	0x3f5f2f56	0.87181604
183	0x3f4173f2	0.75567544
184	0xbf9eab42	-1.2396014
185	0xbe72155b	-0.23640959
186	0x3f5bbb09	0.8583227
187	0xbefafe1f	-0.49022004
188	0xbed2b34f	-0.41152427
189	0x3f9dacf4	1.2318406
190	0x3f10941a	0.56475985
191	0xbde4f9cd	-0.11180458
192	0xbd6e8280	-0.058229923
193	0xbf374908	-0.7159581
194	0x3e975b67	0.29561922
195	0xbea2c8eb	-0.31793913
196	0x3e36de5e	0.17858264
197	0xbe7cf61c	-0.24703258
198	0xbd118483	-0.035526764
199	0x3df86ac4	0.12129739
200	0xbe77c8e7	-0.24197732
201	0x3ca0d142	0.019631032
202	0x3d8061e2	0.0626867
203	0x3e177687	0.14791308
204	0x3e148f7d	0.14507861
205	0x3dda24c1	0.106515415
206	0x3dcfbe03	0.10143664
207	0x3e666fa9	0.22503532
208	0x3d90b142	0.07065059
209	0xbd23b719	-0.039969537
210	0x3dd064df	0.1017549
211	0xbe6453c6	-0.22297582
212	0x3db49862	0.08818127
213	0xbd807d10	-0.06273854
214	0xbe480282	-0.19532207
215	0xbea50815	-0.3223273
216	0x3d64ccb4	0.055859283
217	0x3a6f7565	0.00091346196
218	0x3da70c48	0.08156639
219	0xbe334bab	-0.17509334
220	0xbccc557e	-0.02494311
221	0x3c208ee2	0.009799691
222	0xbd0d91f4	-0.03456302
223	0xbe6c6d9f	-0.23088692
224	0xbd8c2026	-0.06842069
225	0x3d2cab70	0.042155683
226	0xbe1299a0	-0.14316416
227	0xbb24d9a1	-0.002515413
228	0x3e98480c	0.29742467
229	0x3d251240	0.040300608
230	0xbdc01459	-0.09378881
231	0xbd3e944c	-0.046528146
232	0x3c31b72f	0.010846897
233	0xbccc1594	-0.024912633
234	0xbe73003b	-0.23730557
235	0xbe75ebab	-0.24015681
236	0x3d9fbf1c	0.07800123
237	0xbf8050b0	-1.0024624
238	0xbd90ce8c	-0.07070646
239	0xbd4277e3	-0.047477614
240	0x3dc08e22	0.0940211
241	0xbe63236e	-0.22181484
242	0x3e9f999d	0.31171885
243	0x3e281ef2	0.16418055
244	0xbe8a2f5e	-0.26989263
245	0x3d6104dc	0.054936275
246	0x3e6cd408	0.23127759
247	0xbde0ebb5	-0.109824575
248	0x3df7afac	0.120940536
249	0x3e2d2728	0.16909468
250	0xbc856109	-0.016281622
251	0x3c77f8bc	0.0151349865
252	0xbd631e7a	-0.055448987
253	0xbd3a86db	-0.045538764
254	0x3e0bc135	0.13647921
255	0x3cbde6c8	0.023181334

R0__481 f4 [1, 60, 15]
0	0x3d307f7a	0.04309032
1	0x3e975b6e	0.29561943
2	0x3e3771fd	0.17914577
3	0xbe4ce280	-0.20008278
4	0x3c08cdb2	0.008349823
5	0xbc416a61	-0.011805148
6	0x3d1b8741	0.037970785
7	0xbe3143de	-0.17311046
8	0xbe57c01f	-0.21069382
9	0x3ec3bbbe	0.38229173
10	0x3d61725d	0.055040706
11	0xbe1fb9f9	-0.15598287
12	0x3c014e14	0.00789215
13	0xbe3a346c	-0.1818406
14	0x3df58fb2	0.11990298
15	0x3c4cfd3c	0.012511548
16	0x3e1513e5	0.1455837
17	0x3e2f8115	0.17139085
18	0xbd5d8156	-0.054078422
19	0x3e36bffc	0.17846674
20	0xbb43e210	-0.0029889382
21	0xbe4247d3	-0.18972711
22	0x3dd9d9ad	0.106372215
23	0xbdca94f7	-0.09891694
24	0x3eaf83fc	0.34280384
25	0x3e9ddee6	0.3083412
26	0x3dae2bcc	0.08504447
27	0x3e75911d	0.23981138
28	0xbcf99558	-0.03046672
29	0xbe00ca77	-0.12577234
30	0x3eb5f1c1	0.35536006
31	0xbd9bc453	-0.07605805
32	0x3e4f0460	0.20216513
33	0xbe6bbb11	-0.23020579
34	0x3d93a5b8	0.07209343
35	0xbdba29a4	-0.090899736
36	0xbe088b20	-0.13334322
37	0x3e232968	0.15933764
38	0x3e19dd36	0.15025792
39	0x3ea24378	0.316921
40	0x3c84d47e	0.016214605
41	0x3e1f590b	0.15561311
42	0x3d9d43e5	0.076789655
43	0xbe89852c	-0.26859415
44	0x3d340e8e	0.043959193
45	0x3e74533a	0.23859873
46	0xbeb8b9ae	-0.36079162
47	0x3ddf6417	0.109077625
48	0xbe3ea1df	-0.18616436
49	0x3e3dac6b	0.18522803
50	0xbca10d79	-0.019659745
51	0x3de4f6d5	0.11179892
52	0xbd84967b	-0.06474014
53	0xbd4e70b7	-0.050400462
54	0x3d9c9fb5	0.07647649
55	0x3e07c2f2	0.1325796
56	0xbe3db26f	-0.18525098
57	0xbdc85b08	-0.09782988
58	0xbe6a2004	-0.22863775
59	0x3d2d9fa1	0.042388562
60	0x3e3efd4c	0.18651313
61	0xbda6f9d5	-0.081531204
62	0xbe1d77f3	-0.15377788
63	0xbd13b084	-0.03605701
64	0x3de5cf0d	0.112211324
65	0x3e0c34a6	0.13691959
66	0xbdab268f	-0.08356964
67	0x3d8420fe	0.06451605
68	0x3e3eda24	0.18637902
69	0xbc837e6a	-0.01605149
70	0x3d325763	0.04354037
71	0xbe1abc0f	-0.15110801
72	0xbca8a934	-0.020588495
73	0x3e0d2edd	0.13787408
74	0x3da71d5b	0.08159896
75	0x3ee8601f	0.45385835
76	0x3e036a16	0.12833437
77	0x3dea6ade	0.114461645
78	0x3d94f843	0.07273915
79	0x3e865fee	0.26245064
80	0xbd3d04b2	-0.046147056
81	0xbe127a5f	-0.14304493
82	0xbe7d15f7	-0.2471541
83	0xbea583d4	-0.3232714
84	0x3e5faf93	0.2184432
85	0x3e984b3c	0.297449
86	0x3e3ee29e	0.18641135
87	0x3cc423ad	0.023942793
88	0x3d39aff8	0.045333833
89	0x3db28e39	0.08718533
90	0x3e9f2af9	0.31087473
91	0xbe84d61b	-0.259446
92	0x3c18c9f7	0.009325496
93	0xbe8b528e	-0.27211422
94	0x3daeb6ba	0.08530946
95	0xbe569617	-0.20955692
96	0xbdc3a644	-0.09553197
97	0x3e9e49f5	0.309158
98	0x3d0b8e85	0.034071464
99	0x3d5d1767	0.053977396
100	0xbe50001f	-0.20312546
101	0x3d7dbe76	0.061949216
102	0x3d352d90	0.044232905
103	0x3de0afc2	0.10971023
104	0x3e1390b3	0.14410667
105	0x3e319d08	0.17345059
106	0xbe1e75bd	-0.15474601
107	0xbcdf690a	-0.027271766
108	0xbd69a473	-0.057041597
109	0x3ea3e798	0.3201263
110	0x3e1770d6	0.14789137
111	0xbd986492	-0.07441057
112	0xbe382ece	-0.17986605
113	0xbda6cc59	-0.08144445
114	0x3e737b46	0.23777494
115	0x3d71690b	0.058938067
116	0xbcb27cc3	-0.021788007
117	0xbebed0db	-0.3726872
118	0xbde30f38	-0.11086887
119	0xbe061223	-0.13092856
120	0x3e917bf5	0.28414884
121	0xbd1b429a	-0.037905313
122	0x3c00e7d6	0.007867774
123	0x3d3b1e07	0.045682933
124	0x3d7b36ff	0.061331745
125	0x3e858b22	0.26082712
126	0xbd5bd314	-0.053668097
127	0xbdfde2cc	-0.12396774
128	0x3d5b80c8	0.053589612
129	0x3ebafc42	0.36520582
130	0x3e17c934	0.14822847
131	0xbd23c8ae	-0.039986305
132	0x3e035c0d	0.12828083
133	0x3cf61145	0.030037532
134	0xbe56a7e4	-0.20962483
135	0xbec4664c	-0.38359296
136	0xbd821bcc	-0.06352958
137	0x3e5e02bb	0.21680729
138	0x3dbc69d9	0.09199876
139	0x3e8fbebd	0.2807521
140	0xbcea3983	-0.028591877
141	0xbdaeeb1c	-0.08540937
142	0xbd52024c	-0.05127172
143	0xbdc4a581	-0.0960188
144	0xbd887cef	-0.06664454
145	0xbd6d1f71	-0.057891313
146	0xbddbc488	-0.10730845
147	0xbd5ffd10	-0.0546847
148	0x3e194592	0.14967945
149	0xbd50c882	-0.05097247
150	0x3dba61ba	0.09100671
151	0xba989912	-0.0011642298
152	0x3e162ceb	0.14665572
153	0x3e15bc04	0.14622504
154	0xbe2f84c0	-0.17140484
155	0xbe119c30	-0.14219737
156	0xbe3018fb	-0.1719703
157	0xbd11a34c	-0.035556123
158	0x3e8c8a84	0.2744943
159	0x3d8e509a	0.06948967
160	0xbb82e6ed	-0.0039948137
161	0x3c86a0c9	0.01643409
162	0x3d51cbb4	0.051219657
163	0x3e4e42af	0.20142625
164	0xbec18210	-0.37794542
165	0x3dcca7d5	0.09992949
166	0x3deaafcb	0.11459311
167	0x3ec3c0cb	0.38233027
168	0xbee1d656	-0.44108838
169	0x3d3a453d	0.045476187
170	0xbdd55d59	-0.10418195
171	0xbe68af38	-0.2272309
172	0x3d8308a9	0.06398136
173	0xbb34b9c0	-0.0027576536
174	0x3eed23b9	0.46316317
175	0x3d9555f8	0.07291788
176	0xbdae9480	-0.08524418
177	0x3eeb4ea5	0.4595844
178	0xbce71e93	-0.028212821
179	0xbd16ac5c	-0.03678547
180	0x3eae6ebe	0.34068865
181	0x3e4fc642	0.20290473
182	0xbdd93294	-0.1060535
183	0xbd881157	-0.06643932
184	0xbb85f398	-0.0040878765
185	0x3e1b811c	0.1518597
186	0x3e2fbc67	0.17161714
187	0xbdab7b72	-0.08373155
188	0xbe28c563	-0.16481547
189	0xbd4c970a	-0.04994873
190	0x3b1987b3	0.002342683
191	0x3e67a2c3	0.22620682
192	0x3d098e80	0.033583164
193	0x3c677fc8	0.0141295865
194	0x3d78313b	0.060593825
195	0x3e5c8b58	0.2153753
196	0x3e56e1e4	0.20984608
197	0xbe5a0e04	-0.21294409
198	0x3e7823b1	0.24232365
199	0x3e7eec6a	0.24894872
200	0x3c9c611c	0.019089274
201	0x3e1cd387	0.15315066
202	0x3e030132	0.12793425
203	0xbe94ee89	-0.29088238
204	0x3e79dcf6	0.24400696
205	0x3b0797ab	0.0020689766
206	0x3ee0d1cc	0.43910062
207	0xbd2612bf	-0.04054522
208	0xbcd7850e	-0.026308563
209	0x3dfd71d3	0.12375226
210	0x3e94c2a5	0.29054752
211	0x3c56ef5b	0.01311859
212	0xbdca7254	-0.098850876
213	0xbe573ff9	-0.21020497
214	0x3eb4b393	0.35293254
215	0x3f0257e5	0.50915366
216	0xbeb7d1be	-0.35902208
217	0x3e3911a1	0.18073131
218	0x3dd0fa5c	0.10204002
219	0xbd0dc19d	-0.034608472
220	0xbc19d684	-0.009389523
221	0xbdaf77b0	-0.085677505
222	0xbdcefc81	-0.10106755
223	0x3f13a8b5	0.576793
224	0x3e8fd10b	0.28089175
225	0xbe28ffc7	-0.16503821
226	0x3d5f2e29	0.05448738
227	0x3e847055	0.25866953
228	0xbe12de07	-0.14342509
229	0x3dbe3004	0.09286502
230	0x3db08c15	0.086204685
231	0xbe1b2fe7	-0.15154992
232	0xbdb1cdf2	-0.08681859
233	0xbe29bde3	-0.16576342
234	0x3e3bcd04	0.18339926
235	0x3e244f73	0.16045932
236	0xbd60b06d	-0.054855753
237	0x3d00a6cc	0.03140907
238	0xbed67fc8	-0.41894364
239	0x3cd6cd59	0.026220964
240	0x3e186c0f	0.14884971
241	0xbdf5d7b4	-0.12004033
242	0x3e8e3729	0.2777646
243	0xbeaf581a	-0.34246904
244	0xbe1d3105	-0.1535073
245	0xbe1ade54	-0.15123874
246	0xbdd28c42	-0.10280658
247	0xbe0dac33	-0.1383522
248	0x3d4af95d	0.049554218
249	0x3d17d2b5	0.03706618
250	0x3e5061e5	0.20349844
251	0x3b0d8b40	0.0021597892
252	0x3e655151	0.22394301
253	0x3c2831d4	0.010265786
254	0xbe0bfa78	-0.13669765
255	0x3dcc349c	0.09970972

R0__459 f4 [1, 60, 15]
0	0x3e0fa6a4	0.14028412
1	0x3e32b1b3	0.174506
2	0xbe9ce7d4	-0.3064562
3	0xbe9f3114	-0.3109213
4	0x3ea973a7	0.33096048
5	0xbeb37d8a	-0.35056716
6	0x3e398a45	0.18119152
7	0xbe2b6626	-0.16738185
8	0xbe317367	-0.17329179
9	0x3e733be3	0.23753314
10	0xbc86f860	-0.016475856
11	0xbd867212	-0.06564726
12	0xbdba6b61	-0.09102512
13	0xbe2aa154	-0.16663104
14	0xbdece34c	-0.11566791
15	0x3d3bff2c	0.045897648
16	0x3d775edc	0.0603932
17	0x3ec675da	0.3876179
18	0x3cfefd40	0.031126618
19	0xbe89e420	-0.26931858
20	0xbf083b68	-0.53215647
21	0xbb5fec83	-0.0034168072
22	0x3df93b11	0.12169469
23	0x3dc4bfca	0.09606893
24	0x3de1a566	0.110178754
25	0xbe839b19	-0.25704268
26	0xbde8712c	-0.11349711
27	0x3dea868c	0.11451444
28	0xbeced950	-0.4040017
29	0xbe34f6b3	-0.17672233
30	0x3e1dcd84	0.15410429
31	0xbed6edbe	-0.41978258
32	0x3ebecd52	0.37266022
33	0x3d885f6d	0.06658826
34	0x3e387381	0.18012811
35	0x3def0a7c	0.116719216
36	0x3db34d0f	0.08754932
37	0xbe97d685	-0.29655853
38	0xbea73128	-0.3265469
39	0x3e9b0c21	0.3028269
40	0xbec4646b	-0.38357863
41	0xbe465790	-0.1936934
42	0xbe87b35a	-0.26504022
43	0x3e1994c4	0.14998156
44	0xbe41495c	-0.1887564
45	0x3e3ca077	0.18420587
46	0x3e368d8b	0.17827432
47	0xbe4dfbb3	-0.20115547
48	0xbeb8df52	-0.3610788
49	0x3c4157c6	0.011800712
50	0xbed370ef	-0.412971
51	0x3ec9dee4	0.39427865
52	0x3eba5ad5	0.36397424
53	0xbc1432f6	-0.009045353
54	0xbdd21db1	-0.102595694
55	0x3eb3442d	0.35012951
56	0x3e1fc9b2	0.15604284
57	0x3e1cc755	0.15310414
58	0x3db4f8a9	0.08836491
59	0xbe221f15	-0.1583217
60	0xbd3b33ec	-0.045703813
61	0x3d522a87	0.05131009
62	0x3e2b4547	0.16725646
63	0x3e4bfedf	0.19921444
64	0xbdb7ac5a	-0.0896842
65	0xbe9a24d5	-0.30106226
66	0x3e732ead	0.23748274
67	0x3ec63ddb	0.38719067
68	0x3e98e9d3	0.29865894
69	0xbdf6db1a	-0.12053509
70	0x3ecb0555	0.39652506
71	0xbe23d81c	-0.16000408
72	0x3e4311b8	0.19049728
73	0xbdbfd5b9	-0.09366936
74	0xbe6b6230	-0.22986674
75	0x3ec85c31	0.39132836
76	0x3e989474	0.2980076
77	0xbdeae2fc	-0.11469075
78	0x3ea98603	0.33110055
79	0xbe5398a1	-0.20663692
80	0x3ddd50b2	0.10806407
81	0xbe3c4332	-0.18385008
82	0xbe8f64ed	-0.28006688
83	0xbe289323	-0.16462378
84	0xbc4bb153	-0.012432414
85	0x3d6d17df	0.057884093
86	0xbd0a9947	-0.033837583
87	0xbecc75fc	-0.39933765
88	0xbc88ff2c	-0.016723238
89	0xbecb7ec8	-0.39745164
90	0x3ebfadc8	0.37437272
91	0x3df5151c	0.11966917
92	0x3e15c903	0.14627461
93	0xbe65d31d	-0.22443815
94	0xbd4655a9	-0.048421536
95	0xbd21a3f9	-0.039463017
96	0xbdfd9b3d	-0.12383125
97	0x3d3c3bf6	0.04595562
98	0x3da98c53	0.08278718
99	0x3d5366c8	0.05161169
100	0xbc5cb683	-0.013471249
101	0xbd6013e3	-0.054706465
102	0xbe42830c	-0.18995303
103	0xbe6e7a07	-0.23288737
104	0xbe41a7ea	-0.1891171
105	0x3e7ade65	0.244989
106	0x3ea320b7	0.31860897
107	0xbe809b0a	-0.25118285
108	0x3e08dfb4	0.13366586
109	0x3dc3b049	0.09555108
110	0x3e7cf560	0.24702978
111	0xbe2fbac7	-0.17161094
112	0xbddcd384	-0.10782531
113	0xbda5165c	-0.08060905
114	0x3bd5c551	0.006523766
115	0xbe634c76	-0.22197136
116	0x3ddf6fff	0.109100334
117	0x3e863e90	0.26219606
118	0x3ec6aee8	0.38805318
119	0xbd7ab6a0	-0.06120932
120	0xbdedda35	-0.11613885
121	0x3cd62a01	0.026143076
122	0x3e5e6b29	0.21720566
123	0xbedea20e	-0.43483013
124	0xbde7ddad	-0.11321578
125	0xbe1890e2	-0.14899018
126	0x3e2e38b6	0.17013821
127	0x3cf36f49	0.02971615
128	0xbe9f5f52	-0.3112741
129	0xbe0888eb	-0.1333348
130	0xbda66956	-0.0812556
131	0xbc3ced68	-0.011531211
132	0xbcbd789f	-0.023128806
133	0x3e7a0890	0.24417329
134	0x3e4ac790	0.1980269
135	0x3e0b49ff	0.13602446
136	0x3ea8f4cf	0.32999274
137	0x3e9646d1	0.29350904
138	0xbe9d072c	-0.30669534
139	0xbce747d4	-0.028232493
140	0xbe2b352c	-0.16719502
141	0x3e5dcb11	0.21659495
142	0x3d53db3f	0.05172276
143	0xbeb63f05	-0.35594955
144	0x3db1539f	0.086585276
145	0xbe6a915e	-0.22907016
146	0xbe9433ce	-0.28945774
147	0xbe32316b	-0.17401664
148	0xbe561751	-0.20907332
149	0xbe46b09c	-0.19403309
150	0xbea1fcd4	-0.31638205
151	0x3e6b9c95	0.2300895
152	0x3e5af265	0.21381529
153	0xbe3b223b	-0.18274777
154	0x3da4d623	0.08048656
155	0xbe3edadf	-0.1863818
156	0x3ed30668	0.41215825
157	0x3f246fe2	0.6423322
158	0x3e9a5898	0.30145717
159	0x3e727479	0.23677243
160	0xbd1d3d63	-0.03838862
161	0xbe5a3808	-0.21310437
162	0xbe8f3c46	-0.27975672
163	0xbe08eb0e	-0.13370916
164	0x3e09887d	0.13430972
165	0xbe67e3ce	-0.22645494
166	0xbea7a9c8	-0.3274672
167	0xbd2a09aa	-0.041513123
168	0x3e8334e1	0.2562628
169	0xbdd093d9	-0.1018445
170	0x3f25ed7e	0.6481551
171	0xbe340b59	-0.17582454
172	0xbe32a205	-0.17444618
173	0x3efa46cb	0.48882136
174	0xbe0c27f9	-0.13687123
175	0x3e1d15a8	0.15340292
176	0x3e3f5e3e	0.18688294
177	0xbd087769	-0.033317003
178	0x3e0ded28	0.13859999
179	0x3ebe5634	0.37175143
180	0x3eab23b1	0.33425668
181	0xbe1359f4	-0.14389783
182	0x3c7548b3	0.014970946
183	0xbdef4ce6	-0.11684589
184	0xbdeb4787	-0.11488252
185	0x3e192195	0.14954217
186	0x3de927eb	0.11384567
187	0x3b3910ce	0.0028238776
188	0xbe6c6df5	-0.2308882
189	0xbdc9a1a9	-0.09845287
190	0x3eb01b8f	0.34396026
191	0x3e5d6e56	0.21624121
192	0xbed2ec72	-0.41196018
193	0x3de7f25e	0.11325525
194	0x3da92b02	0.08260156
195	0x3ef8f18c	0.48621786
196	0x3edcbc6c	0.43112504
197	0xbe8196ab	-0.25310263
198	0xbd448fb6	-0.047988616
199	0x3cef18a4	0.029186554
200	0xbcad4472	-0.021150801
201	0xbde456e1	-0.11149383
202	0xbdf71d3d	-0.12066124
203	0xbeb7c77e	-0.35894388
204	0x3d968f76	0.07351582
205	0xbe7fdb82	-0.2498608
206	0xbdc8f715	-0.09812752
207	0x3d09ab94	0.033610895
208	0xbdeef0c2	-0.11667015
209	0xbe691300	-0.22761154
210	0x3d1cdf41	0.03829885
211	0xbe6f3f33	-0.23363952
212	0x3ead0806	0.33795184
213	0xbb1975fe	-0.0023416276
214	0x3e029c4f	0.1275494
215	0x3e906ccd	0.28208008
216	0x3e31d994	0.17368156
217	0xbe62d99f	-0.22153328
218	0xbec604ac	-0.3867544
219	0x3e3e3cd0	0.18577886
220	0x3d6d91b3	0.058000278
221	0x3d64a4d8	0.05582127
222	0xbe70b865	-0.23507841
223	0xbf15e0a2	-0.5854589
224	0xbdd0a5a9	-0.10187847
225	0x3e54a3c1	0.20765592
226	0x3e2398ce	0.15976259
227	0x3d0314e6	0.032002352
228	0xbe975423	-0.2955638
229	0x3e2dadbc	0.16960806
230	0xbee18571	-0.4404712
231	0xbe20bb70	-0.15696502
232	0xbe3e6415	-0.18592866
233	0xbe4936c1	-0.19649793
234	0x3e08001f	0.13281296
235	0x3d6ae21c	0.05734454
236	0xbe5b3756	-0.21407828
237	0x3d38a831	0.045082275
238	0x3df90850	0.121597886
239	0xbd82604a	-0.06366022
240	0xbe17307c	-0.14764589
241	0xbd06534f	-0.032794293
242	0xbeab5899	-0.33466032
243	0xbdf5f985	-0.12010483
244	0xbec23e93	-0.37938365
245	0x3da91d1c	0.08257505
246	0xbe53fa6c	-0.20700997
247	0x3e27839c	0.16358799
248	0xbea8b41c	-0.32949913
249	0x3bdda825	0.006764429
250	0xbddd4052	-0.10803284
251	0x3e2f8c24	0.17143303
252	0xbe7eec77	-0.24894892
253	0x3e050f81	0.12994196
254	0xbe26784a	-0.16256824
255	0x3e6fdcdc	0.23424095

B0__504 f4 [1, 120]
0	0x3e41efce	0.18939134
1	0x3e52b54e	0.20576975
2	0x3e0b3a81	0.13596536
3	0x3da87892	0.08226122
4	0x3e36ced4	0.17852336
5	0x3d6b271c	0.057410344
6	0x3e06a7a8	0.13149893
7	0x3c852b3e	0.016255971
8	0x3e866b5c	0.26253784
9	0x3e30a8f6	0.17251953
10	0x3defbbd4	0.11705747
11	0x3e7bd870	0.24594283
12	0x3da75e03	0.08172228
13	0x3d114b3f	0.03547215
14	0x3d91025b	0.070805274
15	0x3e4613af	0.19343446
16	0x3e59e67c	0.21279329
17	0x3e28d1ca	0.16486278
18	0x3dd0d274	0.10196391
19	0x3e1d722e	0.15375587
20	0x3dcc8fba	0.09988351
21	0x3ddbc9ff	0.10731887
22	0x3d343909	0.043999705
23	0x3df197ea	0.117965534
24	0x3e28e1af	0.16492341
25	0x3da68cfc	0.081323594
26	0x3e21b230	0.1579063
27	0x3ea7e359	0.3279064
28	0x3d6290b4	0.05531378
29	0x3db55b26	0.08855276
30	0x3fa4adf5	1.2865587
31	0x3fa3c9ed	1.2795998
32	0x3f926459	1.1436874
33	0x3f971a3e	1.1804883
34	0x3fa1cc47	1.2640465
35	0x3f843a3f	1.0330275
36	0x3f8dbf18	1.1073942
37	0x3f8439d1	1.0330144
38	0x3f8ad654	1.0846658
39	0x3f9f5029	1.2446338
40	0x3f716d1b	0.94307107
41	0x3f96f767	1.1794251
42	0x3f624f4e	0.8840226
43	0x3f8a6fdd	1.0815388
44	0x3f8d76d5	1.105189
45	0x3dadb569	0.08481867
46	0xbdbcea63	-0.09224393
47	0x3d554cd2	0.052075215
48	0x3d8a0692	0.067395344
49	0x3d02b9bc	0.03191541
50	0x3dfddc51	0.12395538
51	0x3d868083	0.065674804
52	0xbd68c504	-0.056828514
53	0xbc2cc833	-0.010545778
54	0x3d39c4ca	0.04535369
55	0x3d89f3ff	0.06735992
56	0xbda5edf2	-0.08102025
57	0x3d881fda	0.066467
58	0xb9ed7406	-0.00045290607
59	0x3c434132	0.011917399
60	0x00000000	0.0
61	0x00000000	0.0
62	0x00000000	0.0
63	0x00000000	0.0
64	0x00000000	0.0
65	0x00000000	0.0
66	0x00000000	0.0
67	0x00000000	0.0
68	0x00000000	0.0
69	0x00000000	0.0
70	0x00000000	0.0
71	0x00000000	0.0
72	0x00000000	0.0
73	0x00000000	0.0
74	0x00000000	0.0
75	0x00000000	0.0
76	0x00000000	0.0
77	0x00000000	0.0
78	0x00000000	0.0
79	0x00000000	0.0
80	0x00000000	0.0
81	0x00000000	0.0
82	0x00000000	0.0
83	0x00000000	0.0
84	0x00000000	0.0
85	0x00000000	0.0
86	0x00000000	0.0
87	0x00000000	0.0
88	0x00000000	0.0
89	0x00000000	0.0
90	0x00000000	0.0
91	0x00000000	0.0
92	0x00000000	0.0
93	0x00000000	0.0
94	0x00000000	0.0
95	0x00000000	0.0
96	0x00000000	0.0
97	0x00000000	0.0
98	0x00000000	0.0
99	0x00000000	0.0
100	0x00000000	0.0
101	0x00000000	0.0
102	0x00000000	0.0
103	0x00000000	0.0
104	0x00000000	0.0
105	0x00000000	0.0
106	0x00000000	0.0
107	0x00000000	0.0
108	0x00000000	0.0
109	0x00000000	0.0
110	0x00000000	0.0
111	0x00000000	0.0
112	0x00000000	0.0
113	0x00000000	0.0
114	0x00000000	0.0
115	0x00000000	0.0
116	0x00000000	0.0
117	0x00000000	0.0
118	0x00000000	0.0
119	0x00000000	0.0

B0__482 f4 [1, 120]
0	0x3d9f6dbd	0.07784603
1	0x3e680fda	0.22662297
2	0x3b209d46	0.0024507805
3	0x3d7d6507	0.061863925
4	0x3d21800e	0.039428763
5	0x3e4c6f0b	0.19964235
6	0x3d6fa2ea	0.058504976
7	0x3de06e8e	0.10958587
8	0x3de14719	0.10999889
9	0x3e023058	0.12713754
10	0x3d294432	0.0413248
11	0x3d269287	0.040667083
12	0x3d7fa883	0.062416565
13	0x3e9cf2b0	0.30653906
14	0x3e1ac319	0.15113486
15	0x3de2cd93	0.110743664
16	0x3e1e8b53	0.15482835
17	0xbd0bf53e	-0.034169428
18	0x3d826479	0.0636682
19	0x3e0bec50	0.13664365
20	0x3e106520	0.14101076
21	0x3d512f3e	0.051070444
22	0x3d04603b	0.032318335
23	0x3dadf537	0.08494037
24	0x3ddef356	0.108862564
25	0x3d684157	0.056702938
26	0x3d121bbf	0.035670992
27	0xbae75827	-0.0017650173
28	0x3e629a4e	0.22129175
29	0x3e6bd0ac	0.23028821
30	0x3f87b412	1.0601828
31	0x3f93f463	1.1558956
32	0x3f7f04d2	0.9961673
33	0x3f8b62a6	1.088948
34	0x3f8dae63	1.1068844
35	0x3f9f177c	1.2429042
36	0x3f86a9b5	1.052054
37	0x3f90ca95	1.1311823
38	0x3f91ac08	1.1380625
39	0x3f895abf	1.0730819
40	0x3f8a35f7	1.0797719
41	0x3f819575	1.0123736
42	0x3f77c8d2	0.967908
43	0x3f9555c3	1.1666797
44	0x3f86f8f8	1.0544729
45	0x39b6b132	0.00034845766
46	0xbc877504	-0.01653529
47	0x3c4941df	0.012283771
48	0xbce00d82	-0.027350191
49	0x3c79279c	0.0152071975
50	0xbcb50b3a	-0.02210008
51	0xbd0727e3	-0.032997023
52	0x3c334b56	0.010943254
53	0x3ab881e4	0.0014076796
54	0x3d4aa0ff	0.049469944
55	0x3da3d88d	0.08000288
56	0x3d75a28b	0.059969466
57	0x3cfa5881	0.03055978
58	0x3d3a899b	0.045541387
59	0x3d24b4cf	0.040211495
60	0x00000000	0.0
61	0x00000000	0.0
62	0x00000000	0.0
63	0x00000000	0.0
64	0x00000000	0.0
65	0x00000000	0.0
66	0x00000000	0.0
67	0x00000000	0.0
68	0x00000000	0.0
69	0x00000000	0.0
70	0x00000000	0.0
71	0x00000000	0.0
72	0x00000000	0.0
73	0x00000000	0.0
74	0x00000000	0.0
75	0x00000000	0.0
76	0x00000000	0.0
77	0x00000000	0.0
78	0x00000000	0.0
79	0x00000000	0.0
80	0x00000000	0.0
81	0x00000000	0.0
82	0x00000000	0.0
83	0x00000000	0.0
84	0x00000000	0.0
85	0x00000000	0.0
86	0x00000000	0.0
87	0x00000000	0.0
88	0x00000000	0.0
89	0x00000000	0.0
90	0x00000000	0.0
91	0x00000000	0.0
92	0x00000000	0.0
93	0x00000000	0.0
94	0x00000000	0.0
95	0x00000000	0.0
96	0x00000000	0.0
97	0x00000000	0.0
98	0x00000000	0.0
99	0x00000000	0.0
100	0x00000000	0.0
101	0x00000000	0.0
102	0x00000000	0.0
103	0x00000000	0.0
104	0x00000000	0.0
105	0x00000000	0.0
106	0x00000000	0.0
107	0x00000000	0.0
108	0x00000000	0.0
109	0x00000000	0.0
110	0x00000000	0.0
111	0x00000000	0.0
112	0x00000000	0.0
113	0x00000000	0.0
114	0x00000000	0.0
115	0x00000000	0.0
116	0x00000000	0.0
117	0x00000000	0.0
118	0x00000000	0.0
119	0x00000000	0.0

B0__460 f4 [1, 120]
0	0x3e14a287	0.14515124
1	0x3daf08ad	0.08546577
2	0x3e4a3284	0.19745833
3	0x3e0adcc2	0.13560775
4	0x3d507ee5	0.050902266
5	0x3ece7034	0.4031998
6	0x3e471335	0.1944092
7	0x3e66a75f	0.22524785
8	0x3e265b5f	0.16245793
9	0x3e17c6e3	0.14821963
10	0x3d9276cc	0.07151565
11	0x3eae8257	0.34083816
12	0x3dbd309b	0.092377864
13	0x3ebb5912	0.36591393
14	0x3e0a4897	0.13504253
15	0x3daae57f	0.08344554
16	0x3e5d82ad	0.2163188
17	0x3ed0258c	0.40653646
18	0x3e1cd75f	0.15316533
19	0x3dc78ee6	0.097440526
20	0x3f063f6b	0.5244052
21	0x3e174c2a	0.14775148
22	0x3e1ed697	0.15511547
23	0x3de657e5	0.11247233
24	0x3ddb2914	0.107011944
25	0x3daa44d9	0.08313913
26	0x3eb68655	0.35649362
27	0x3e2cbe7a	0.16869536
28	0x3e1bfa85	0.15232284
29	0x3df4d303	0.1195431
30	0x3f8e770b	1.1130079
31	0x3f8cecdd	1.1009785
32	0x3f7cd18d	0.9875725
33	0x3fa238a6	1.2673538
34	0x3f8a0012	1.0781271
35	0x3f8df525	1.1090437
36	0x3f898d94	1.0746331
37	0x3f7aa080	0.97901154
38	0x3f7b3ff5	0.98144466
39	0x3f935c67	1.1512574
40	0x3f78b5ad	0.97152215
41	0x3f8ba164	1.0908628
42	0x3f8e24bb	1.1104959
43	0x3f855fc4	1.041985
44	0x3f86c94b	1.053018
45	0x3d00b941	0.031426672
46	0xbca2a85e	-0.019855674
47	0x3d6a034a	0.057132043
48	0xbd3113ac	-0.04323165
49	0x3d814188	0.06311327
50	0x399ce61a	0.00029926078
51	0xbc965083	-0.018348938
52	0xbcd187fa	-0.025577534
53	0x3d2b1aa1	0.041773442
54	0x3c51f2e6	0.012814259
55	0xbc7f9c4e	-0.015601231
56	0xbc545885	-0.012960558
57	0xbd5a1526	-0.053242825
58	0x3c1d4a5d	0.009600249
59	0x3d32c318	0.043643087
60	0x00000000	0.0
61	0x00000000	0.0
62	0x00000000	0.0
63	0x00000000	0.0
64	0x00000000	0.0
65	0x00000000	0.0
66	0x00000000	0.0
67	0x00000000	0.0
68	0x00000000	0.0
69	0x00000000	0.0
70	0x00000000	0.0
71	0x00000000	0.0
72	0x00000000	0.0
73	0x00000000	0.0
74	0x00000000	0.0
75	0x00000000	0.0
76	0x00000000	0.0
77	0x00000000	0.0
78	0x00000000	0.0
79	0x00000000	0.0
80	0x00000000	0.0
81	0x00000000	0.0
82	0x00000000	0.0
83	0x00000000	0.0
84	0x00000000	0.0
85	0x00000000	0.0
86	0x00000000	0.0
87	0x00000000	0.0
88	0x00000000	0.0
89	0x00000000	0.0
90	0x00000000	0.0
91	0x00000000	0.0
92	0x00000000	0.0
93	0x00000000	0.0
94	0x00000000	0.0
95	0x00000000	0.0
96	0x00000000	0.0
97	0x00000000	0.0
98	0x00000000	0.0
99	0x00000000	0.0
100	0x00000000	0.0
101	0x00000000	0.0
102	0x00000000	0.0
103	0x00000000	0.0
104	0x00000000	0.0
105	0x00000000	0.0
106	0x00000000	0.0
107	0x00000000	0.0
108	0x00000000	0.0
109	0x00000000	0.0
110	0x00000000	0.0
111	0x00000000	0.0
112	0x00000000	0.0
113	0x00000000	0.0
114	0x00000000	0.0
115	0x00000000	0.0
116	0x00000000	0.0
117	0x00000000	0.0
118	0x00000000	0.0
119	0x00000000	0.0
